lectures/makemore/model_state.pt (torch, 49648 bytes, 5 tensors)

C f4 [27, 10]
0.4538284 -0.07834586 0.20562512 0.058852453 0.39040706 -0.13064656 -0.34721 0.04233972
0.04211447 0.27821046 -0.52296656 0.8961 -0.16212109 -0.17213297 1.1163191 1.8345047
0.5863004 -0.69979125 0.4670632 -0.82215506 1.2026294 0.35363021 -1.7023182 0.72848713
-0.9789278 2.6578665 2.8485327 -0.56719714 -1.3458658 1.2803847 -1.8612342 1.3270731
0.26780698 1.1512146 -1.0742728 -0.7490534 -1.1899972 1.6385 -1.0030835 1.1933626
-1.1958632 -0.10086288 0.29707342 1.2408811 -1.1915199 1.5915978 0.5485969 1.3083558
0.28674608 -0.85730326 0.01220835 0.8227789 0.58836967 -1.418892 0.23424943 -0.99299514
0.9036332 0.8615374 -0.6768108 -1.4074595 0.12462477 0.064824834 -0.90675455 -1.0939696
0.53026897 -0.9975205 2.089562 2.5605485 -0.42902243 1.1398371 0.872598 1.7569116
-1.5059981 0.21619016 -1.5442363 2.1195219 0.37728268 1.8248929 -0.44614097 1.242888
-1.8521163 0.39623323 -1.1038128 -0.9407039 0.8288656 -0.024815254 1.5963584 -1.2134043
-0.57690895 1.8467792 -0.6246809 0.4559039 0.99091995 -1.3321669 -0.69283223 0.8568154
-0.52537316 -0.19721204 -2.1593173 -0.32889923 -1.3039004 -0.48407814 -2.3242795 0.24038036
-1.1408874 -0.00031024835 -1.7320478 -1.3177902 -1.4216034 0.4085624 -1.6599053 0.67646176
0.71632296 -0.90515983 -0.9328527 -0.2110497 -1.1546549 1.0386667 0.9611066 0.991494
-0.7168499 -0.16698883 -1.4447461 -2.0316834 -1.9756843 0.10230492 -0.9419694 -0.76639605
1.0202879 0.15745981 -0.387619 -0.5289694 -1.3274255 -1.5509391 0.048683036 0.16838764
1.87742 0.35529792 0.47680822 1.9965981 0.019628411 -2.0933108 0.58938134 -0.4138576
-0.7019883 0.9343365 1.0746652 -0.5265736 0.0048998236 -0.3967308 0.3176276 1.2792873
-1.8094567 1.1253699 0.7621192 0.848991 0.35726997 1.077475 -2.1555834 -1.3762342
-3.8599603 0.71978086 1.1710693 1.3590857 1.7610952 -0.87020427 0.9134996 1.1961764
0.66385686 0.39734674 1.4551066 0.7147407 -0.46079814 0.52225125 -1.3616748 -0.5412876
-0.8451446 -1.0698769 3.2410212 -0.8194348 0.5463684 -0.78150403 -1.5500437 0.07924122
-0.8713485 -0.15695602 0.60234624 0.7457902 0.84768367 -1.8323382 -0.18914053 0.7725004
0.05651417 1.9487648 -1.2369448 -1.2758777 0.40614334 -1.7932324 -0.63146365 -0.48685896
0.46204987 1.0570686 1.266906 1.2527137 -2.4936829 0.46389672 1.2853225 -0.5007599
0.8804529 -0.6948158 0.59852475 2.9786136 0.66698587 -1.466124 -0.18972205 -0.3900137
1.0304296 -0.95986766 0.88681 -0.091506496 0.54756105 -1.3885216 -1.7849941 -0.13293064
-2.0753615 -0.22754201 -0.038868025 1.4771718 -2.0888233 0.26496458 -1.2344952 -0.25434428
-0.8521827 1.5058055 -0.2939233 -0.02600522 1.2388542 2.5002623 -0.59185094 -0.07562927
-0.11697689 -0.14261343 -1.6681551 0.27512437 0.31484357 -1.502847 0.14628899 0.25200695
-1.1774032 -0.3989695 -1.7326461 -0.4266707 -0.089994945 -0.6236822 0.4968918 -0.85874826
00000000: 325c e83e cb73 a0bd 648f 523e 450f 713d
00000010: 6fe3 c73e 36c8 05be 82c5 b1be 6a6c 2d3d
00000020: 3980 2c3d 9a71 8e3e 23e1 05bf cf66 653f
00000030: 1203 26be a043 30be 8be3 8e3f 0dd1 ea3f
00000040: c817 163f 8525 33bf e822 ef3e c178 52bf
00000050: c3ef 993f 050f b53e 90e5 d9bf 227e 3a3f
00000060: 039b 7abf 7c1a 2a40 5c4e 3640 d533 11bf
00000070: 5545 acbf a5e3 a33f ec3c eebf 88dd a93f
00000080: ff1d 893e 005b 933f c581 89bf f7c1 3fbf
00000090: d451 98bf 5eba d13f 0a65 80bf 1bc0 983f
000000a0: 0c12 99bf 3391 cebd 021a 983e 31d5 9e3f
000000b0: b983 98bf 7ab9 cb3f d970 0c3f 3478 a73f
000000c0: 62d0 923e 3a78 5bbf 8805 483c a3a1 523f
000000d0: 659f 163f 419e b5bf 15df 6f3e ee34 7ebf
000000e0: 8154 673f b78d 5c3f 7943 2dbf a227 b4bf
000000f0: 453b ff3d e2c2 843d 1121 68bf 3207 8cbf
00000100: b5bf 073f 815d 7fbf 62bb 0540 07e0 2340
00000110: d4a8 dbbe 2fe6 913f 9562 5f3f 7be2 e03f
00000120: 8cc4 c0bf f460 5d3e 89a9 c5bf 3fa6 0740
00000130: 322b c13e 1796 e93f 976c e4be f416 9f3f
00000140: 2612 edbf 15df ca3e bd49 8dbf f9d1 70bf
00000150: 8930 543f 5c49 cbbc 7955 cc3f d550 9bbf
00000160: 4eb0 13bf 4363 ec3f 16eb 1fbf 3c6c e93e
00000170: eeac 7d3f 7284 aabf 745d 31bf 4158 5b3f
00000180: db7e 06bf f4f1 49be 4132 0ac0 7b65 a8be
00000190: 35e6 a6bf 17d9 f7be ffc0 14c0 4526 763e
000001a0: 9908 92bf d4a8 a2b9 beb3 ddbf 59ad a8bf
000001b0: 1af7 b5bf 172f d13e c777 d4bf 992c 2d3f
000001c0: f160 373f 8eb8 67bf 6fcf 6ebf 6a1d 58be
000001d0: bbcb 93bf 08f3 843f 150b 763f 8dd2 7d3f
000001e0: 7a83 37bf 1fff 2abe 71ed b8bf 1a07 02c0
000001f0: 39e3 fcbf 3e85 d13d e824 71bf 8832 44bf
00000200: cb98 823f 253d 213e ff75 c6be 8a6a 07bf
00000210: 14e9 a9bf 2c85 c6bf dd67 473d cf6d 2c3e
00000220: 4c4f f03f 9ce9 b53e 3520 f43e 8790 ff3f
00000230: c3cb a03c cef8 05c0 b2e1 163f 25e5 d3be
00000240: 81b5 33bf ad30 6f3f a18e 893f 87cd 06bf
00000250: b38e a03b 4d20 cbbe 16a0 a23e b0bf a33f
00000260: 479c e7bf 1f0c 903f 3e1a 433f 7957 593f
00000270: 17ec b63e b3ea 893f 14f5 09c0 7128 b0bf
00000280: 9709 77c0 8f43 383f 99e5 953f 85f6 ad3f
00000290: 916b e13f b5c5 5ebf 1cdb 693f 4f1c 993f
000002a0: 86f2 293f 0871 cb3e ef40 ba3f 3ff9 363f
000002b0: bced ebbe 42b2 053f 5c4b aebf d391 0abf
000002c0: 665b 58bf baf1 88bf e46c 4f40 7bc6 51bf
000002d0: cdde 0b3f a610 48bf d567 c6bf 3949 a23d
000002e0: b210 5fbf 14b9 20be 5d33 1a3f 1bec 3e3f
000002f0: cc01 593f 0f8a eabf 0eae 41be 96c2 453f
00000300: 677b 673d 2071 f93f 3554 9ebf f64f a3bf
00000310: 05f2 cf3e a488 e5bf 9aa7 21bf 9445 f9be
00000320: cd91 ec3e 064e 873f fa29 a23f ec58 a03f
00000330: 8098 1fc0 df83 ed3e 7385 a43f cd31 00bf
00000340: 5c65 613f 73df 31bf eb38 193f 9ba1 3e40
00000350: 96bf 2a3f f4a9 bbbf 7f46 42be e0af c7be
00000360: 1ee5 833f e3b9 75bf fb05 633f c267 bbbd
00000370: f62c 0c3f 13bb b1bf b07a e4bf f81e 08be
00000380: b9d2 04c0 c600 69be 1434 1fbd f713 bd3f
00000390: 48af 05c0 70a9 873e f003 9ebf 6a39 82be
000003a0: a528 5abf 3cbe c03f 1d7d 96be e608 d5bc
000003b0: c692 9e3f 4c04 2040 8b83 17bf 85e3 9abd
000003c0: 9491 efbd 4109 12be 1b86 d5bf 1add 8c3e
000003d0: 2d33 a13e 4a5d c0bf c8cc 153e 0e07 813e
000003e0: 26b5 96bf bb45 ccbe 59c7 ddbf 9574 dabe
000003f0: 454f b8bd a3a9 1fbf 9a68 fe3e edd6 5bbf

W1 f4 [30, 200]
-0.17763042 -0.02086694 -0.50634015 0.42886716 -0.49844778 -0.2813681 -0.43413514 0.9059087
-0.37057087 0.033161536 -0.19774209 -0.20716214 -0.11027179 -0.8664131 -0.55144435 0.39408863
-0.23183148 0.18133827 0.38884398 0.43673304 0.16152649 0.19690803 0.28161177 0.33372003
-0.025516113 0.18721086 0.14765164 0.12825708 -0.3495477 0.090586685 -0.061796356 0.31571615
0.378352 -0.1909524 0.13025086 0.105209336 -1.0007824 -0.21897174 -0.16193672 0.5679139
-0.5113468 -0.18686122 0.5128788 -0.36502013 -0.21068873 -0.11312233 0.1915393 -0.13303387
0.14009973 0.0787955 0.21685469 0.22059654 0.34500602 -0.5427185 0.9463783 0.74998367
0.41449386 0.033804208 0.59418565 0.062183324 0.014190025 -0.49215406 0.22044837 0.89193285
0.33743787 0.13900478 -0.112406656 0.707965 0.46749136 0.19882765 -0.37941402 -0.29375896
0.34428123 -0.42279562 0.10189264 -0.16383626 0.6449169 0.2445326 -0.27182427 -0.23385258
-0.15830126 -0.24533738 -0.44116268 0.17101456 -0.2896268 0.46584964 -0.126244 0.027547428
0.48880643 -0.1663768 0.25127584 -0.38340956 0.14254557 -0.12843099 0.39372426 0.33403713
0.45285538 -1.1250207 -0.412039 0.06668222 -0.57143486 0.069805615 -0.825105 -0.28430006
-0.09105625 -0.8636501 0.015727643 0.29311913 0.77177906 -0.050425977 -0.33839053 -0.21847337
0.28507322 -0.0636851 -0.7348812 0.7588428 -0.50973904 -0.22030464 0.07314232 -0.6922723
0.11882901 -0.3852729 0.0957936 -0.34898502 0.20122837 0.13399012 0.9966372 0.25209716
0.69163734 -0.33604255 0.8986965 0.46630982 -0.16792184 -0.28694087 -0.1133713 -0.25075582
0.57073987 -0.45784044 -0.91583806 0.48603338 0.59772784 -0.08517738 -0.6189589 -0.11368579
0.58966917 -0.6678341 -0.6277999 -0.811585 0.7524633 0.37833345 1.1038855 -0.46783775
-0.05904889 0.66088605 -0.14364743 -0.2762014 -0.108245134 -0.23626597 -0.415446 0.069833726
0.7173306 0.15972306 0.17442892 -0.60013 -0.24711628 0.05862699 -0.30426648 -0.49795005
0.040230747 0.078288235 0.45270836 0.7518333 -0.46712247 -0.2011995 0.23432992 0.21585725
0.098809965 -0.20726074 -0.16757974 -0.10822022 -0.30464014 0.06440735 -0.35350022 -0.2372964
0.6318404 -0.30059326 -0.6615139 -0.73005223 0.27757767 0.08311877 -0.69876033 0.71971947
-0.2104546 -0.68731475 -0.113586076 -0.20038022 0.0916343 -0.394827 0.73533356 -0.474525
-0.11337797 -0.43888995 -0.33281738 -0.01813254 0.42095783 -0.23813012 0.12557851 -0.27584475
-0.052170172 -0.19725168 -0.32537055 -0.39910066 0.14649612 0.4240201 0.056701254 0.5846999
0.00515062 -0.1354557 -0.026959203 -0.4513879 -0.31355917 -0.34946918 -0.9122923 0.23031968
-0.74011016 -0.53721607 1.0256735 -0.35218787 -0.118902065 0.18439522 0.41433096 -0.86852896
-0.368238 0.8169149 -0.17714578 0.15449877 -0.29815403 0.18051581 -0.57281315 0.44805238
-0.09460278 0.44026676 -0.41340864 0.65547734 -0.018554876 0.15887357 -0.7828938 0.3695112
0.10291291 0.13743575 0.029271776 0.17177248 -0.28972763 0.78249186 0.44839504 -0.8200693
00000000: c0e4 35be 25f1 aabc 829f 01bf 7a94 db3e
00000010: 8c34 ffbe 7b0f 90be f646 debe a2e9 673f
00000020: 77bb bdbe 64d4 073d e77c 4abe 5022 54be
00000030: 2dd6 e1bd 40cd 5dbf 752b 0dbf fcc5 c93e
00000040: 3b65 6dbe bdb0 393e 8f16 c73e 799b df3e
00000050: 3367 253e 42a2 493e 6b2f 903e 5add aa3e
00000060: 2b07 d1bc 34b4 3f3e fe31 173e d355 033e
00000070: ebf7 b2be 8385 b93d 2d1e 7dbd 8ca5 a13e
00000080: 5ab7 c13e 0789 43be 7b60 053e fe77 d73d
00000090: a319 80bf 213a 60be bdd2 25be ce62 113f
000000a0: a0e7 02bf 8c58 3fbe 064c 033f ebe3 babe
000000b0: c9be 57be aeac e7bd e122 443e 083a 08be
000000c0: 4e76 0f3e 895f a13d 280f 5e3e 0fe4 613e
000000d0: a1a4 b03e 9aef 0abf d945 723f eefe 3f3f
000000e0: 8a38 d43e 4876 0a3d 8d1c 183f f1b3 7e3d
000000f0: 477d 683c 9efb fbbe 38bd 613e b655 643f
00000100: a8c4 ac3e 4557 0e3e 7635 e6bd 323d 353f
00000110: 075b ef3e 7a99 4b3e 8e42 c2be 9367 96be
00000120: a145 b03e ab78 d8be 17ad d03d b1c4 27be
00000130: 4619 253f c166 7a3e 8d2c 8bbe 0d77 6fbe
00000140: ba19 22be b939 7bbe 13e0 e1be 711e 2f3e
00000150: f749 94be d883 ee3e 1b46 01be 25ab e13c
00000160: d644 fa3e ae5e 2abe 3aa7 803e 424e c4be
00000170: 77f7 113e 6a83 03be 3a96 c93e ea06 ab3e
00000180: a9dc e73e ae00 90bf c7f6 d2be b090 883d
00000190: 8e49 12bf 3ff6 8e3d 153a 53bf c78f 91be
000001a0: b37b babd 2c18 5dbf 42d7 803c b613 963e
000001b0: 5093 453f 788b 4ebd 8641 adbe 7cb7 5fbe
000001c0: 1ef5 913e 556d 82bd 2d21 3cbf 8643 423f
000001d0: 427e 02bf 8a97 61be a4cb 953d c238 31bf
000001e0: a05c f33d 7d42 c5be 6f2f c43d 2aae b2be
000001f0: cf0e 4e3e b534 093e 9e23 7f3f e112 813e
00000200: 250f 313f c50d acbe f910 663f 29c0 ee3e
00000210: b4f3 2bbe eae9 92be 362f e8bd 1163 80be
00000220: 021c 123f 106a eabe 5d74 6abf 5ed9 f83e
00000230: b104 193f 7a71 aebd 1774 1ebf 18d4 e8bd
00000240: 8ff4 163f 2df7 2abf 7fb7 20bf 09c4 4fbf
00000250: 6fa1 403f ecb4 c13e 1f4c 8d3f 6e88 efbe
00000260: 40dd 71bd d42f 293f 5018 13be 456a 8dbe
00000270: a0af ddbd b5ef 71be 57b5 d4be fc04 8f3d
00000280: faa2 373f 718e 233e 7f9d 323e 1fa2 19bf
00000290: 0d0c 7dbe db22 703d d1c8 9bbe 4ff3 febe
000002a0: ffc8 243d 9555 a03d 64c9 e73e 2678 403f
000002b0: ad2a efbe 3e07 4ebe 2ff4 6f3e af09 5d3e
000002c0: e15c ca3d 293c 54be 069a 2bbe 90a2 ddbd
000002d0: cbf9 9bbe 00e8 833d fbfd b4be d4fd 72be
000002e0: 4bc0 213f 5ce7 99be fa58 29bf b4e4 3abf
000002f0: a91e 8e3e 2c3a aa3d f5e1 32bf 893f 383f
00000300: 6981 57be dcf3 2fbf d19f e8bd 7930 4dbe
00000310: c4aa bb3d c426 cabe d23e 3c3f f1f4 f2be
00000320: b632 e8bd 2fb6 e0be 0a67 aabe b18a 94bc
00000330: c987 d73e 62d8 73be a797 003e 863b 8dbe
00000340: 64b0 55bd 58fc 49be f896 a6be ec56 ccbe
00000350: 1403 163e 2a19 d93e 933f 683d e5ae 153f
00000360: 88c6 a83b e6b4 0abe 8cd9 dcbc 511c e7be
00000370: d48a a0be a0ed b2be fd8b 69bf ecd8 6b3e
00000380: dc77 3dbf fe86 09bf 4549 833f f851 b4be
00000390: ed82 f3bd 1ad2 3c3e 3023 d43e ea57 5ebf
000003a0: b189 bcbe 5621 513f b465 35be ed34 1e3e
000003b0: a5a7 98be 23d9 383e e2a3 12bf 1f67 e53e
000003c0: 1abf c1bd a56a e13e 4caa d3be 5dcd 273f
000003d0: 6500 98bc c1af 223e ba6b 48bf 9230 bd3e
000003e0: 01c4 d23d f5bb 0c3e 5dcb ef3c 20e5 2f3e
000003f0: 2e57 94be 6351 483f 0994 e53e 10f0 51bf

W2 f4 [200, 27]
-0.10874445 0.17673294 0.13369383 -0.29876947 -0.06669047 0.063097104 -0.34941217 -0.23666005
0.13063858 0.17723085 0.023531789 -0.1953226 -0.22667302 0.06456791 -0.41430828 0.63213646
-0.013861666 0.1268585 0.37543747 0.28345743 -0.35068834 0.081713565 0.19542822 -0.084240414
0.18733902 0.22145884 -0.5696326 0.21222717 0.14627261 0.28489393 -0.067256056 -0.24249956
0.038334373 -0.15500487 0.14394622 -0.33108565 0.17964941 0.0023801052 -0.016277587 0.08555552
0.2252135 -0.13032925 -0.22914536 0.17695032 -0.1900627 0.048356965 0.15812159 -0.03744304
0.069764316 0.07764922 -0.34017518 0.14788945 -0.1904244 -0.04824744 0.107456654 0.16208683
0.25203907 -0.4304688 -0.2046244 0.20975442 -0.013867356 -0.43067813 -0.023063306 0.17625116
0.0931438 0.04646091 -0.10107843 0.06426849 0.26888216 0.12805945 -0.2666135 0.089517094
0.2857152 0.1407618 -0.48548573 0.22441924 -0.107148275 -0.19376342 0.0696196 -0.39057478
0.3698905 0.10387108 0.18353254 -0.2708942 0.2706534 -0.28279862 -0.0334934 -0.28117156
-0.26902652 0.21568301 0.1006712 0.18402153 -0.026134351 -0.05360172 -0.012191895 0.2972451
0.42814693 -0.13777988 -0.26499683 -0.42516428 0.30080912 0.09357883 0.27638134 0.0009927368
0.030721951 -0.34475663 0.30459267 -0.37615567 0.06719724 -0.14011881 -0.17292006 0.1251139
0.04682769 -0.18429919 0.07217227 -0.046940748 0.05935463 -0.080116384 -0.10678621 -0.039227337
-0.19834666 -0.3326928 0.39320394 0.029308122 0.16852893 -0.10423436 0.030079447 -0.19704074
0.48512068 0.29367325 -0.25289187 0.24952878 -0.004472511 -0.17840356 -0.033243172 0.04029385
-0.13344897 -0.03543443 -0.12344763 0.15566595 -0.23162745 0.2685778 0.053969283 0.13478056
-0.21979302 -0.0967738 -0.23041934 0.2354936 -0.14723273 -0.13922887 -0.12207832 -0.011694685
0.0078077815 0.055708386 0.13375026 -0.025852906 0.4195405 0.029216114 -0.16282466 -0.51287675
0.3706245 0.33067593 -0.22559173 0.21780904 -0.07658057 0.055854183 -0.12001922 0.259487
-0.30063277 -0.036191307 -0.5406528 -0.011630322 -0.18305735 -0.1322694 0.39022437 0.39767143
0.13423921 0.15477459 -0.0029134373 -0.28736243 -0.30935436 0.52874655 0.05803652 -0.12283286
-0.36537406 0.14846507 -0.028647093 0.15775882 0.37271795 -0.047575794 -0.62035096 0.03248769
0.2304069 0.34137046 -0.2381507 0.2982729 0.014449712 -0.4419737 -0.3165938 -0.13298441
0.45483536 0.29759714 -0.09765763 -0.20978935 -0.06676913 0.52053624 0.24718791 -0.16475369
-0.104491375 0.6399048 -0.47945818 -0.03626663 0.092822194 0.3355644 -0.14248013 -0.39338776
0.115578875 -0.16002291 -0.13524793 0.16749464 0.4506732 0.003939472 -0.19891438 -0.31985983
0.19127524 -0.17303851 -0.17210113 0.105361916 -0.11792691 -0.2932469 0.29526335 0.07433293
0.08585511 0.15630035 -0.49576995 -0.10485802 0.15375572 -0.010792477 -0.18394373 -0.09604296
0.27185038 0.13369255 0.26859334 -0.08848913 0.3269404 -0.17680888 -0.4934865 -0.12301341
0.082004875 0.16380757 0.030080661 -0.05900006 0.05929026 0.37783083 -0.23948723 -0.23165864
00000000: 69b5 debd 7bf9 343e 09e7 083e 50f8 98be
00000010: 0395 88bd 0e39 813d 27e6 b2be 0357 72be
00000020: 1fc6 053e 017c 353e bdc5 c03c a602 48be
00000030: f91c 68be 2e3c 843d 3720 d4be b2d3 213f
00000040: 0b1c 63bc 32e7 013e 5739 c03e 5521 913e
00000050: 6c8d b3be 7159 a73d 561e 483e 3d86 acbd
00000060: cdd5 3f3e 1bc6 623e 71d3 11bf 1452 593e
00000070: 7dc8 153e 9edd 913e 8bbd 89bd ce51 78be
00000080: 8104 1d3d 99b9 1ebe a366 133e 0f84 a9be
00000090: 04f6 373e 8afb 1b3b 9358 85bc bc37 af3d
000000a0: 5e9e 663e 0875 05be 15a5 6abe 7732 353e
000000b0: cc9f 42be f411 463d a0ea 213e e05d 19bd
000000c0: 98e0 8e3d 8e06 9f3d 712b aebe 5570 173e
000000d0: 9dfe 42be 1c9f 45bd 3c12 dc3d 17fa 253e
000000e0: 440b 813e 6866 dcbe 0f89 51be ddc9 563e
000000f0: e833 63bc d881 dcbe 42ef bcbc 2f7b 343e
00000100: 2dc2 be3d cc4d 3e3d 3502 cfbd 339f 833d
00000110: ecaa 893e 0422 033e 9181 88be bd54 b73d
00000120: 4349 923e dc23 103e 9691 f8be 28ce 653e
00000130: 8e70 dbbd eb69 46be b994 8e3d 6bf9 c7be
00000140: 4a62 bd3e 5cba d43d f4ef 3b3e a5b2 8abe
00000150: 1593 8a3e fbca 90be 6030 09bd b8f5 8fbe
00000160: d8bd 89be 02dc 5c3e b42c ce3d 2470 3c3e
00000170: b517 d6bc 7a8d 5bbd 84c0 47bc 8230 983e
00000180: 1336 db3e 2b16 0dbe aaad 87be 22af d9be
00000190: a703 9a3e 42a6 bf3d db81 8d3e b81e 823a
000001a0: 9aac fb3c f183 b0be 92f3 9b3e 7a97 c0be
000001b0: b59e 893d 4e7b 0fbe f511 31be dc1d 003e
000001c0: 64ce 3f3d edb8 3cbe 0ecf 933d f144 40bd
000001d0: d71d 733d 0f14 a4bd bab2 dabd d8ac 20bd
000001e0: 631b 4bbe b656 aabe 0752 c93e 9617 f03c
000001f0: d992 2c3e d378 d5bd 2c69 f63c 0cc5 49be
00000200: bd61 f83e 575c 963e 0b7b 81be 7984 7f3e
00000210: 248e 92bb 6caf 36be fe29 08bd 2a0b 253d
00000220: d9a6 08be b123 11bd 1cd2 fcbd e566 1f3e
00000230: bf2f 6dbe 0883 893e e50e 5d3d ea03 0a3e
00000240: 6c11 61be 5831 c6bd 0cf3 6bbe 3c25 713e
00000250: 2dc4 16be 0392 0ebe 3304 fabd 109b 3fbc
00000260: 6bd8 ff3b 7a2e 643d d4f5 083e 79c9 d3bc
00000270: 03ce d63e a256 ef3c 82bb 26be e44b 03bf
00000280: 7fc2 bd3e 5b4e a93e 8501 67be 5509 5f3e
00000290: 46d6 9cbd 5bc7 643d a3cc f5bd 7bdb 843e
000002a0: 8aec 99be 563d 14bd 3968 0abf 1b8d 3ebc
000002b0: 6373 3bbe a171 07be 7dcb c73e 979b cb3e
000002c0: 0176 093e 3b7d 1e3e 5eef 3ebb 2b21 93be
000002d0: b263 9ebe ef5b 073f b4b7 6d3d cb8f fbbd
000002e0: 4f12 bbbe 3a07 183e 4fad eabc 878b 213e
000002f0: e3d4 be3e d6de 42bd 52cf 1ebf d011 053d
00000300: c9ef 6b3e 1cc8 ae3e c7dd 73be 3ab7 983e
00000310: 7cbe 6c3c 604a e2be 9518 a2be 112d 08be
00000320: 2ee0 e83e a75e 983e b900 c8bd 05d3 56be
00000330: 41be 88bd dd41 053f d41e 7d3e 31b5 28be
00000340: 93ff d5bd cdd0 233f 8b7b f5be 518c 14bd
00000350: 9019 be3d 19cf ab3e 50e6 11be 1f6a c9be
00000360: 9eb4 ec3d 0cdd 23be 6f7e 0abe b783 2b3e
00000370: a3be e63e b016 813b 36b0 4bbe abc4 a3be
00000380: a8dd 433e 0231 31be 473b 30be fdc7 d73d
00000390: aa83 f1bd 7524 96be c22c 973e dd3b 983d
000003a0: ced4 af3d 330d 203e 8fd5 fdbe cdbf d6bd
000003b0: 2472 1d3e eed2 30bc bf5b 3cbe 2cb2 c4bd
000003c0: f92f 8b3e b3e6 083e 1185 893e ca39 b5bd
000003d0: bb64 a73e 630d 35be 43aa fcbe 74ee fbbd
000003e0: 2cf2 a73d 2cbd 273e b86b f63c 0caa 71bd
000003f0: 58da 723d 0b73 c13e 243c 75be ec37 6dbe

b1 f4 [200]
0.20513996 -0.074346855 -0.14014204 0.57884204 0.15681419 -0.23209111 0.49276724 -0.019594535
0.017345665 0.49738136 -0.009231488 -0.41758132 0.032326974 0.11152569 0.008204351 0.18077783
-0.080542915 -0.46850455 -0.3891308 0.40805236 -0.16258875 -0.40491858 0.21216016 -0.009566847
0.33685505 -0.1464391 0.46920255 -0.20745023 -0.037729822 0.1986394 -0.049156167 -0.07456889
0.6262947 -0.21772464 -0.06843741 -0.62473935 0.31675377 -0.35135052 -0.14961186 -0.32285586
-0.26380804 -0.12282191 0.08012109 0.02969347 -0.20074238 -0.23267305 -0.19637173 0.016660035
0.15577152 0.056938622 0.03201409 -0.09927462 0.24374145 -0.035494443 0.067860186 0.17437337
-0.2614827 0.46775284 -0.004124138 -0.039891113 -0.102591574 0.3298973 0.15513788 0.09757261
0.43418494 0.24723431 0.23885857 -0.35091177 -0.16927871 0.01741979 -0.4289301 -0.22793333
0.31169337 -0.6185331 -0.49796402 -0.09558643 0.24237303 -0.28726068 -0.102746226 -0.38287187
0.11436497 0.67988276 0.2771018 -0.15430155 0.04809655 -0.32878008 -0.102808945 -0.11855022
-0.14545836 0.22813806 0.05220444 0.25023222 -0.10487895 -0.18232226 -0.27069098 -0.032713477
-0.20633341 0.18759881 0.38994375 -0.5185072 0.2773767 0.49583945 -0.04209266 0.16629486
-0.24897206 0.33027905 -0.4948126 -0.18509255 0.26503554 -0.036967207 0.28776723 0.35761744
-0.44697937 0.3168021 0.29141673 -0.31122518 -0.08559399 -0.44770426 -0.038009044 -0.32973123
0.038679317 -0.32210687 -0.038090814 0.5909685 -0.47060588 0.17230794 -0.44447705 -0.0074549955
-0.0036576767 -0.09465906 0.0919693 -0.168634 0.17717123 0.24834944 0.51938033 0.3528707
0.16524696 0.1068833 0.11184628 -0.03268017 0.21973512 -0.29656684 -0.06315586 -0.27457914
0.90479505 0.39632085 0.20939925 0.0076745832 -0.21922292 -0.15815727 -0.7235974 0.37913445
0.060306065 0.110139094 0.27597862 0.008192778 0.82168263 -0.2584943 -0.40253547 0.35042697
0.22649668 0.032363486 0.14542776 -0.4170182 0.10392697 0.19489962 0.32105052 0.52311957
-0.04210143 -0.4096278 -0.2344187 0.1703577 -0.20134097 -0.09176815 -0.26554757 0.19277751
0.05629439 -0.03414061 -0.11949075 -0.07429545 0.01775897 0.41482684 -0.15024196 0.018992137
-0.09881725 0.19766903 0.39116195 0.026931798 0.80193126 0.31556174 0.14472404 0.1620359
-0.19469644 0.04093221 -0.005369803 -0.215805 0.31152162 -0.2553001 -0.2943224 0.19429132
00000000: 3610 523e 2a43 98bd 6581 0fbe fe2e 143f
00000010: e693 203e 4ba9 6dbe fd4b fc3e b884 a0bc
00000020: 7f18 8e3c c5a8 fe3e ab3f 17bc 38cd d5be
00000030: 4a69 043d 9567 e43d 8b6b 063c d31d 393e
00000040: aff3 a4bd d4df efbe 273c c7be 3dec d03e
00000050: aa7d 26be 7d51 cfbe 8340 593e 44be 1cbc
00000060: 4478 ac3e 22f4 15be 513b f03e d56d 54be
00000070: 968a 1abd 2068 4b3e fa57 49bd 93b7 98bd
00000080: d954 203f 35f3 5ebe ea28 8cbd ebee 1fbf
00000090: 8d2d a23e 37e4 b3be da33 19be 5d4d a5be
000000a0: d911 87be 0e8a fbbd 8716 a43d b83f f33c
000000b0: 698f 4dbe d841 6ebe ac15 49be a07a 883c
000000c0: 9282 1f3e 7938 693d 3521 033d 7e50 cbbd
000000d0: 5c97 793e 9f62 11bd 48fa 8a3d ef8e 323e
000000e0: 0fe1 85be 4d7d ef3e c723 87bb dd64 23bd
000000f0: 881b d2bd 4de8 a83e 77dc 1e3e 26d4 c73d
00000100: 7d4d de3e fe2a 7d3e 5797 743e b5aa b3be
00000110: 6657 2dbe f3b3 8e3c ba9c dbbe 5b67 69be
00000120: 4696 9f3e 2f58 1ebf 24f5 febe d1c2 c3bd
00000130: a330 783e d513 93be 9d6c d2bd c807 c4be
00000140: 2e38 ea3d cc0c 2e3f 4ae0 8d3e 3a01 1ebe
00000150: e300 453d dd55 a8be 7f8d d2bd 75ca f2bd
00000160: 09f3 14be 069d 693e 53d4 553d 701e 803e
00000170: c6ca d6bd b0b2 3abe 0298 8abe 91fe 05bd
00000180: 1149 53be e719 403e b5a6 c73e e3bc 04bf
00000190: 5204 8e3e abde fd3e 5a69 2cbd 3349 2a3e
000001a0: 88f2 7ebe 561a a93e 1458 fdbe e788 3dbe
000001b0: bdb2 873e ed6a 17bd 3a56 933e a219 b73e
000001c0: 7bda e4be e333 a23e 9334 953e e858 9fbe
000001d0: e74b afbd 7e39 e5be 5faf 1bbd 88d2 a8be
000001e0: 346e 1e3d 31eb a4be 1d05 1cbd b649 173f
000001f0: 41f3 f0be 7e71 303e 7f92 e3be 0949 f4bb
00000200: a2b5 6fbb 9cdc c1bd 665a bc3d 64ae 2cbe
00000210: 606c 353e 514f 7e3e 1cf6 043f 78ab b43e
00000220: 8036 293e a2e5 da3d aa0f e53d a4db 05bd
00000230: 3e02 613e 9cd7 97be dc57 81bd a395 8cbe
00000240: a6a0 673f 91ea ca3e c26c 563e 127b fb3b
00000250: f97b 60be fbf3 21be ae3d 39bf e91d c23e
00000260: 7e03 773d 9b90 e13d 124d 8d3e 003b 063c
00000270: cb59 523f 5d59 84be 2119 cebe 2a6b b33e
00000280: bfee 673e 938f 043d 04eb 143e 6983 d5be
00000290: aad7 d43d c493 473e bc60 a43e 2aeb 053f
000002a0: 8d72 2cbd bcba d1be 750b 70be 4072 2e3e
000002b0: 542c 4ebe f1f0 bbbd daf5 87be 7867 453e
000002c0: f294 663d 06d7 0bbd 91b7 f4bd 3628 98bd
000002d0: 427b 913c 2f64 d43e 07d9 19be 6695 9b3c
000002e0: b360 cabd c069 4a3e 6146 c83e 13a0 dc3c
000002f0: 5e4b 4d3f 4f91 a13e 8a32 143e bdec 253e
00000300: 815e 47be 88a8 273d 2cf5 afbb fcfb 5cbe
00000310: c37f 9f3e b2b6 82be 6db1 96be 4ef4 463e

b2 f4 [27]
-0.031377688 1.7690778 -0.48557472 -0.28985393 -0.3904707 1.4613951 -0.8277634 -1.1841922
0.15969446 1.3841052 -0.64704293 0.0063879574 0.68818367 -0.08038077 0.105890475 0.6180192
-0.59717536 -1.0858781 0.33304232 0.7353729 0.35873136 -0.032663133 -0.63598907 -0.6383269
-0.90574837 0.56085205 -0.34824848
00000000: e485 00bd 2471 e23f 409d f8be bc67 94be
00000010: c7eb c7be ff0e bb3f 4de8 53bf 9c93 97bf
00000020: f286 233e 5c2a b13f 9ba4 25bf 1252 d13b
00000030: ce2c 303f ac9e a4bd 1bdd d83d 8236 1e3f
00000040: 7ce0 18bf 0efe 8abf 8684 aa3e 6641 3c3f
00000050: a3ab b73e c7c9 05bd 2ed0 22bf 6469 23bf
00000060: 20df 67bf 0094 0f3f a04d b2be
